…
in comparison to our train data. \newpage


```{r, echo=FALSE, warning=FALSE, fig.cap="Number of samples for each class for both data sets", out.width='60%', fig.align='center'}
knitr::include_graphics(here::here("outputs", "train-val-split-balance.png"))
```


We can see that we observe the expected 80-20 split for each of the 50 classes, which is important to be able to evaluate the performance of our models.\

For this data set, we will examine the performance of two CNN models - one we will build from scratch, and the other one is the pre-trained RESNET18 model. Our CNN model has the following structure\

(conv1): Conv2d(3, 16, kernel_size = 3, padding = 1)\
(maxpool): MaxPool2d(kernel_size = 2)\
(conv2): Conv2d(16, 32, kernel_size = 3, padding = 1)\
(fc1): Linear(32 * 56 * 56, 128)\
(fc2): Linear(128, length(dataset$classes))\

and the RESNET18 has the following structure\

(conv1): Conv2d(3, 64, kernel_size=7, stride=2, padding=3, bias=False)\
(bn1): BatchNorm2d(64)\
(relu): ReLU(inplace=True)\
(maxpool): MaxPool2d(kernel_size=3, stride=2, padding=1)\
(layer1): Sequential(\
  (0): BasicBlock(\
      (conv1): Conv2d(64, 64, 3, stride=1, padding=1, bias=False)\
      (bn1): BatchNorm2d(64)\
      (relu): ReLU(inplace=True)\
      (conv2): Conv2d(64, 64, 3, stride=1, padding=1, bias=False)\
      (bn2): BatchNorm2d(64)\
  )\
  (1): BasicBlock(...)  - Same as above\
)\

(layer2): Sequential(\
  (0): BasicBlock(\
      (conv1): Conv2d(64, 128, 3, stride=2, padding=1, bias=False)\
      (bn1): BatchNorm2d(128)\
      (conv2): Conv2d(128, 128, 3, stride=1, padding=1, bias=False)\
      (bn2): BatchNorm2d(128)\
      (downsample): Sequential(\
          (0): Conv2d(64, 128, 1, stride=2, bias=False)\
          (1): BatchNorm2d(128)\
      )\
  )\
  (1): BasicBlock(...)\
)\

(layer3): Sequential(...)  - With 256 filters\

(layer4): Sequential(...)  - With 512 filters\

(avgpool): AdaptiveAvgPool2d(output_size=(1, 1))\
(fc): Linear(in_features=512, out_features=1000, bias=True)\


We will train each model for 10 epochs using an Adam optimizer with learning rate of 0.001.
Below you can find the plots of the losses and accuracies of the CNN model


```{r, echo=FALSE, warning=FALSE, fig.cap="Values of loss", out.width='60%', fig.align='center'}
knitr::include_graphics(here::here("outputs", "loss-cnn-model.png"))
```
 \newpage 
```{r, echo=FALSE, warning=FALSE, fig.cap="Values of accuracy", out.width='60%', fig.align='center'}
…
